weigths/ckpt_0_991.pth (torch, 539143 bytes, 27 tensors)

backbone.0.0.weight f4 [16, 1, 3, 3]
000000 8c ed 91 3e 3c 90 d0 3e d2 9f 93 3e 21 dd 23 3f
       0.28501546 0.40735042 0.2883287 0.6400929
000010 8e cb 33 3e e4 8f d3 3c 28 c5 7d 3d 20 25 f7 be
       0.17558119 0.025825448 0.0619556 -0.48270512
000020 1d 30 4d bf c6 55 5b bf 1d 9a 70 bf 30 a0 22 3f
       -0.8015154 -0.85677755 -0.9398516 0.63525677
000030 2d 6b 85 be bd 3f a2 3e a2 9e 78 3f a7 58 29 3e
       -0.2605833 0.31689253 0.97117054 0.16537724
000040 3a 4a 62 3e be 4c 58 be 6c c6 1e 3e 9c ce 35 3f
       0.22098628 -0.21123025 0.1550538 0.71018386
000050 ee 95 a6 3e 28 6e 61 3f a4 fd 98 3e c5 66 57 3d
       0.32536262 0.8805871 0.29881012 0.052588243
000060 96 b4 24 3f 71 e2 2d 3f 58 bc 00 3e 9c 7a e7 be
       0.6433805 0.6792365 0.12571847 -0.4521073
000070 af 64 cf be 35 fd bc be e6 f6 f0 3e f3 60 7d 3e
       -0.40506503 -0.36911932 0.4706337 0.24744014
000080 58 2a 11 bf 51 8d 92 be e1 ac 88 3c c2 9c 50 bc
       -0.56705236 -0.2862344 0.016683998 -0.0127326865
000090 7d 68 2d be 3b 7d 7c bd d2 27 bd be a3 73 b8 3e
       -0.1693439 -0.061642867 -0.36944443 0.36025724
0000a0 3b 86 82 be 8c 68 2f bf 5f ea a0 3e c4 36 55 3f
       -0.25493035 -0.685189 0.3142881 0.8328669
0000b0 56 76 82 3e 44 b3 99 3e 88 07 2b 3f 03 f3 bb 3d
       0.25480908 0.3001958 0.66808367 0.0917721
0000c0 c5 1b 6c be 7a 45 95 bd 40 fe 49 3e b6 31 32 bf
       -0.23057468 -0.07288642 0.19725895 -0.696071
0000d0 18 c0 96 bd af 8b b2 bd 6b 3d c2 3e c1 f6 e1 bb
       -0.07360858 -0.08718049 0.37937483 -0.0068958704
0000e0 4e 37 5a be 86 7f 7e 3d bd 03 0d 3f fb 37 84 be
       -0.2131016 0.062133335 0.5508383 -0.2582396
0000f0 c1 45 0d 3e b5 47 94 3e 27 b4 f8 3e 33 18 45 bf
       0.1379614 0.28960958 0.48574945 -0.7699005
000100 ba 1a 0a 3f b5 8e 9e 3f 36 cd a1 bd 9c 8a 73 bf
       0.5394703 1.2387301 -0.07900469 -0.95133376
000110 b3 8f 88 bd 45 cb 0c bf 2e a5 de 3d 4c 33 71 3d
       -0.066680335 -0.54997665 0.10871349 0.05888681
000120 92 fd 90 3e 1c 7e 9b be 4e 61 75 bd b7 b3 7f 3e
       0.2831846 -0.3036965 -0.05990725 0.249709
000130 24 b5 b9 be 08 1d 3d 3f 6f a9 e8 3d 22 07 28 bf
       -0.36271012 0.73872423 0.11360442 -0.65635884
000140 76 97 b2 3e fe 8c 8a 3f 3c 73 70 bc 45 79 5f be
       0.3488118 1.0824277 -0.0146759115 -0.21823604
000150 6e 69 a9 3d 5f 07 15 bf 34 7a 06 be 2d 11 e7 3d
       0.08272062 -0.5821437 -0.13132554 0.11282573
000160 4b 7e bd 3e 6f b1 7f 3e 0d f4 08 3f 2e 4f 34 be
       0.37010416 0.2497003 0.5349739 -0.1760833
000170 1a b9 b2 3e 5b 13 6a 3f cc 39 2d 3f b7 a2 86 3e
       0.34906846 0.91435784 0.67666316 0.26296017
000180 86 73 d9 3e 73 e6 ce 3e 4a e5 82 be 89 41 d1 3e
       0.4247095 0.40410194 -0.2556556 0.40870312
000190 5f 0d 6f be 85 95 b9 be 2b 74 ff 3c c7 4c 85 be
       -0.23344944 -0.36246887 0.031183323 -0.2603514
0001a0 b6 cb ff be ff d1 ba bf 99 cd 16 bf 20 16 8f 3e
       -0.49960107 -1.4595336 -0.5890747 0.27946568
0001b0 21 64 c3 be 3d f8 ba be 48 d0 5d b9 14 92 09 3f
       -0.3816233 -0.36517516 -0.00021153793 0.5373852
0001c0 d1 f5 83 3e 07 98 0f 3e ff 2f 21 3f a0 0c 1c bf
       0.2577348 0.14022838 0.6296386 -0.60956764
0001d0 d6 cf 16 bf 12 8f f6 3e c6 76 ef 3e 41 c2 0f bf
       -0.5891088 0.4815603 0.46770304 -0.5615578
0001e0 02 27 2c 3e d2 76 e8 be 9d b2 39 bf f3 7e 70 3e
       0.16811755 -0.45403153 -0.7253817 0.23485927
0001f0 7e 84 50 3f cc e4 61 bf c5 76 0a 3e 62 52 60 be
       0.8145217 -0.8823974 0.1352187 -0.21906427
000200 cc 9f 7e be b4 4e 5d bf de 69 75 be 09 f5 bc 3e
       -0.24865645 -0.86448216 -0.23966166 0.36905697
000210 6d 65 51 3f b9 7c 0a 3f 43 5d 0e 3e 4d 6e c0 3e
       0.8179539 0.5409656 0.13902764 0.37584153
000220 d7 c0 7e bd 8b 79 56 bf 8b eb 6d be 8d 39 0d 3f
       -0.062195625 -0.8377921 -0.23234384 0.5516594
000230 43 59 54 3f e7 57 0b be 7b 5b 99 3d 36 da 92 3e
       0.829487 -0.13607751 0.07488152 0.28682107

backbone.0.1.weight f4 [16]
000000 ef 84 98 3f 8d 3e a2 3f ac 5a d1 3d 0a 66 9a 3f
       1.1915568 1.2675339 0.102223724 1.206239
000010 00 00 cd 3f 6c 19 62 3f 96 00 a7 3e 23 8f 43 3f
       1.6015625 0.8832004 0.32617635 0.76390284
000020 56 17 39 3f ac d1 20 3f 4d 2e 87 3e 69 50 c4 3f
       0.7230123 0.62819934 0.26402512 1.5337039
000030 dd 6e 93 3f a6 65 8b 3f 29 04 95 3f 4b 04 22 3f
       1.1518208 1.0890396 1.1641895 0.632878

backbone.0.1.bias f4 [16]
000000 9e ea 8f 3e f0 cd 34 be b1 17 cd bd 91 d2 0d 3e
       0.28108686 -0.17656684 -0.100142844 0.13849856
000010 3f bd f5 bd ea 62 44 be db 51 49 be e1 4c ca bd
       -0.119989865 -0.19178358 -0.19660132 -0.09877945
000020 03 30 38 3e c4 e7 ca bd 43 ca 7b 3e 74 8f a8 3e
       0.17987065 -0.09907487 0.24588875 0.32921946
000030 9d dd c7 3d 3d aa bf 3d db ce cb 3c 01 57 a1 3d
       0.09759066 0.09358642 0.02487891 0.07877923

backbone.0.1.running_mean f4 [16]
000000 48 9a d6 be e4 c6 7b bc 9a 24 2c c0 63 3a 71 3f
       -0.41914582 -0.015367243 -2.689734 0.94229716
000010 bf 3d 1c be c4 b0 8a bd 9c 44 7d bf 88 28 a6 3e
       -0.1525793 -0.067719966 -0.98932815 0.32452798
000020 35 ff 7a be 5c 07 29 bf 63 5c 0b c0 b0 4c ee 3f
       -0.24511416 -0.66026855 -2.1775138 1.8617153
000030 c3 7e 88 3e 8b d9 a1 3e 48 aa 94 be 23 c3 15 bf
       0.26659212 0.31611285 -0.29036164 -0.5850088

backbone.0.1.running_var f4 [16]
000000 8b 6e 46 3f 72 8f 5d 3f 03 65 8e 40 8a 4d 0e 3f
       0.77512425 0.86547005 4.4498305 0.55587065
000010 3e 05 cd 3e 48 54 9b 3e f0 c4 24 3f 7b 64 35 3f
       0.40043062 0.3033774 0.64363 0.70856446
000020 6a a9 eb 3d dd c4 cd 3e 43 e8 46 40 60 8a 22 40
       0.115069225 0.40189257 3.1079261 2.5396957
000030 8e c8 85 3e 17 fc 50 3f c5 71 b9 3e e7 bc c8 3e
       0.26129574 0.8163466 0.36219612 0.3920662

backbone.2.0.weight f4 [32, 16, 3, 3]
000000 e1 a8 ad 3e 08 2d fd 3d b0 26 17 be c4 23 74 be
       0.33917907 0.12362105 -0.14760852 -0.23841769
000010 08 50 e8 bd f3 a7 b1 bb c3 97 67 bd 03 6d b2 be
       -0.1134339 -0.0054216324 -0.056541216 -0.34848794
000020 52 5c b4 be 34 3e fd 3d 5a 90 b2 3d db 43 16 3e
       -0.35226685 0.1236538 0.08718939 0.14674322
000030 63 0b f7 bd d6 7e 1d 3e 97 8e 83 3e f6 38 e9 bc
       -0.12062719 0.15380415 0.25694725 -0.028469544
000040 e8 39 ea bd f0 1f a6 3e 8d 58 5e 3e f4 b0 8c be
       -0.11436826 0.3244624 0.21713467 -0.27478755
000050 9a 6d ad be 89 ef 32 3e c9 ed 16 be b5 82 d5 be
       -0.33872682 0.17474188 -0.14739145 -0.41701284
000060 b3 dc 92 3e 38 e8 67 bd 6e a6 e2 3a 6b 16 5e 3e
       0.28684005 -0.056617945 0.0017292032 0.2168824
000070 6e e3 4c 3c cc 55 c5 3e 55 b0 54 bd df 52 af bd
       0.012505395 0.3854202 -0.051925976 -0.08560728
000080 1f d1 02 3e 34 a8 17 bf 24 d4 4f be 37 e7 d2 be
       0.12775086 -0.5924103 -0.20295769 -0.41192028
000090 ce 5c 15 3e ed 94 9e bd 2a a0 33 bf 89 c2 17 3e
       0.14586183 -0.07743249 -0.70166266 0.14820303
0000a0 51 bf 7f 3e 96 e3 b6 3e 6a 3e 9f 3e 25 b3 16 3f
       0.24975325 0.3572051 0.31102306 0.588671
0000b0 2b 9d d7 3e 29 09 ec be 00 a7 c8 bd b1 ce 07 be
       0.42112097 -0.4610074 -0.09797478 -0.1326244
0000c0 cf 1b 90 be fc aa 9a bd 7c b5 7b be 27 26 94 3d
       -0.28146216 -0.07552144 -0.2458095 0.072338395
0000d0 5e b5 7c 3d b9 39 19 3e 7c 31 bb 3d 22 da ce be
       0.061696403 0.14963426 0.09140298 -0.40400797
0000e0 c0 12 ee be 26 9e 00 3f 58 03 e8 3d 22 91 02 bf
       -0.4649868 0.50241315 0.11328763 -0.51002705
0000f0 16 32 fb 3e d4 bf ca 3e a5 3a 36 3e ab c3 28 be
       0.4906165 0.39599478 0.17795809 -0.16480891
000100 03 ed 12 bf 88 ef 9a be 13 83 0a be b6 bc 0f be
       -0.573929 -0.30260873 -0.13526563 -0.14036831
000110 44 b0 92 bd 97 f4 d2 3d 7c fa 0d bd 85 3b ec 3d
       -0.07162526 0.10300558 -0.03466271 0.1153479
000120 d1 87 14 be 9f c0 c5 be c0 5b 2a be 21 3b 93 3e
       -0.14504935 -0.3862352 -0.16636562 0.2875605
000130 03 c6 ae 3d 78 a2 de be 1a 6d c6 bd c9 c4 02 3f
       0.085338615 -0.4348333 -0.09688778 0.5108152
000140 8d 41 4a 3d 45 b5 4d 3e 75 d5 a9 3c 31 1a a1 be
       0.04937892 0.2008868 0.020731667 -0.31465295
000150 b9 e2 0a 3f 69 53 96 3e 33 e6 4e 3d d9 ac dd 3e
       0.542522 0.29360512 0.050512504 0.43295935
000160 d1 9e 6e bd 6b 6b eb 3c d9 28 54 3e c2 83 4b bd
       -0.058256928 0.028737744 0.20718707 -0.0496862
000170 5a 66 70 be 1b de 28 3e 6f 25 a1 bd d0 66 66 be
       -0.23476544 0.16490977 -0.07868468 -0.22500157
000180 8d 1b b4 3d 4d 69 0c 3e 3a 12 42 ba a4 cf a9 3d
       0.087943174 0.13712044 -0.00074032287 0.082915574
000190 1a 81 e5 3d 56 45 07 3f 54 eb 0a bf 11 6b 6c be
       0.11206265 0.52840173 -0.5426533 -0.23087718
0001a0 0f a5 30 3e bb 0f 1d bf 34 5d 54 bf 45 c6 39 be
       0.17250465 -0.6135213 -0.82954717 -0.1814204
0001b0 10 0e 6e 3e 16 41 d4 3e a7 1d d3 3e dd 67 4b 3e
       0.23247552 0.41455907 0.4123356 0.1986384
0001c0 e7 4d 8c 3e 80 3e c8 3e 56 b3 c6 be f3 67 21 be
       0.27403185 0.39110184 -0.38808697 -0.1576231
0001d0 85 a8 78 bd 23 90 b8 3e 59 7c ac 3e 1a fd f3 3d
       -0.060707588 0.36047468 0.3368862 0.1191351
0001e0 c3 88 60 3e b8 5f 80 3e 95 4f 34 3d b6 ba 92 3c
       0.2192717 0.25073028 0.044021208 0.017911296
0001f0 d7 d5 85 be cf 1d 81 be 14 1e fe bd b0 81 3a 3f
       -0.2613971 -0.25218055 -0.12408081 0.7285414
000200 a9 b9 b4 3e a2 b8 d2 3b 66 11 0e be ca 0d 10 3f
       0.35297897 0.0064307014 -0.13873824 0.5627104
000210 63 e5 86 be 9d e9 41 be 6c 6d f3 3d 0d a3 d8 bd
       -0.26346883 -0.18936773 0.11886105 -0.105779745
000220 b9 9f b8 bc 68 ab 9f be 92 2c 89 3e fd ff 27 3c
       -0.0225371 -0.3118546 0.26791817 0.010253903
000230 36 df 71 be 00 9d 22 3f ae cd 6d 3d ca b5 cc 3e
       -0.23620304 0.63520813 0.05805748 0.39982444
000240 0e 7d 02 bf 18 d4 f3 be 27 17 81 be 44 a5 a3 be
       -0.5097207 -0.47622752 -0.25212976 -0.31962025
000250 16 cf aa 3d 86 ff 72 bd 14 9b 88 be e0 29 c6 3e
       0.0834028 -0.059325717 -0.26680815 0.38703823
000260 ce b0 d1 3e de ae 88 3d ba 05 46 be d4 47 44 bf
       0.40955204 0.06673978 -0.19338122 -0.766721
000270 f5 7a 47 3e e7 32 a6 3d b1 d4 bc 3a ba 6b 5a 3d
       0.19480498 0.081151776 0.0014406649 0.053325392
000280 62 3b 72 bd d3 79 20 3e 7b 81 94 be 49 57 e2 bd
       -0.059138663 0.15671472 -0.29005036 -0.110518046
000290 37 e7 41 be b3 4e 3a 3d 57 90 6a 3d b4 7f 49 3c
       -0.18935858 0.04548521 0.05726656 0.012298513
0002a0 57 04 d5 3d 7b 69 1d 3e 23 f2 fa 3e 9c c1 5c 3e
       0.104012184 0.15372269 0.4901286 0.21558231
0002b0 ed b3 39 3e c2 1c 30 3f 26 7e eb be 5a 03 58 3d
       0.18135042 0.6879388 -0.4599468 0.05273757
0002c0 cd b1 88 3e 64 57 a3 bd ea 39 94 bd a9 55 2f be
       0.2669815 -0.07975653 -0.07237609 -0.1712252
0002d0 89 01 1d 3e 8f 13 12 3e 11 19 55 3e f5 0b 8c 3d
       0.15332617 0.14265274 0.20810343 0.06838218
0002e0 0d 8f fa 3d 2f c5 ec 3e 7f 86 52 be 36 5e 63 be
       0.12234316 0.4624419 -0.20559119 -0.22203907
0002f0 20 9f b3 be bb 3d cf be b1 ae b0 be 35 78 38 3e
       -0.3508234 -0.40476784 -0.3450828 0.18014605
000300 ac 7d c3 be 93 26 a2 be cf 09 84 be d6 07 c7 3d
       -0.38181818 -0.31670055 -0.25788733 0.097182915
000310 ca 99 ff 3b d8 c1 88 3d c0 2e a3 be 9d 8f 89 be
       0.0078003155 0.06677598 -0.31871605 -0.2686738
000320 3e ae 02 bf 69 82 66 bc 74 95 0a 3d 14 12 89 3e
       -0.5104712 -0.014069178 0.033833936 0.26771605
000330 59 3e 07 3e fc 23 b4 3c b1 5a cd bd 51 8e 8d be
       0.13207377 0.021989815 -0.10027064 -0.2764764
000340 0d 97 d9 be 27 5d ef bd 88 6e 4b 3c 61 73 0a be
       -0.42498055 -0.11687689 0.012416489 -0.13520576
000350 f2 f7 01 bf 44 45 1a 3e cd b2 2e bd 05 a8 f7 3d
       -0.5076896 0.15065485 -0.042650986 0.12092594
000360 2d 00 28 bf 3f c9 41 be 71 87 14 bf b1 d2 2a 3e
       -0.6562527 -0.18924426 -0.5801917 0.16681935
000370 3c 5a fa 3d 5f 1d 40 3d dd 20 a8 bc b3 6f b0 3d
       0.12224242 0.04690301 -0.020523483 0.08615055
000380 71 71 78 3e a8 cd 2a bf 92 fc 07 bf d1 5f 74 be
       0.24262024 -0.66720057 -0.53119767 -0.23864676
000390 fc 52 48 be cc 65 52 bd 67 c8 57 be e8 40 6e 3d
       -0.19562906 -0.051366612 -0.21072541 0.05816737
0003a0 f2 04 cf 3d f0 f9 85 3e 46 f2 b0 be 8d ff d0 be
       0.10108365 0.2616725 -0.3455984 -0.4081997
0003b0 1b c6 91 be 63 4e de bd da 09 82 3e 4e 52 6b 3e
       -0.28471455 -0.10854795 0.2539814 0.22980615
0003c0 9c 73 ea 3d 4c 84 9f 3e 9e b0 cd 3d 22 de ab 3e
       0.11447832 0.31155622 0.10043453 0.3356791
0003d0 00 88 0c 3e 17 b9 0f 3e 5f 74 91 3e f3 90 f4 3c
       0.13723755 0.1403545 0.28409097 0.029854273
0003e0 dd e7 26 be 99 0f 76 bd 4b 5d 6f bd b0 99 45 3e
       -0.16299386 -0.06007347 -0.05843858 0.19296908
0003f0 fd 60 63 be 37 d5 8f be 83 e8 f2 3e 31 5b 56 be
       -0.22204967 -0.28092358 0.47443017 -0.20933224

backbone.2.1.weight f4 [32]
000000 30 57 7e 3f fe f8 a4 3f 91 96 93 3f 67 a7 62 3f
       0.9935179 1.2888486 1.1530324 0.88536686
000010 5d 0d 50 3f 5b 77 63 3f 05 17 4e 3f 8e 34 56 3f
       0.8127039 0.88853997 0.80503875 0.8367394
000020 cd 8b 34 3f 47 45 4a 3f 15 2d 61 3f 6d fb 6b 3f
       0.7052582 0.7901196 0.87959415 0.9218052
000030 c1 14 5f 3f 09 9e 8b 3f f8 42 8c 3f 89 76 21 3f
       0.8714104 1.0907604 1.0957937 0.63071495
000040 3e 27 92 3f d6 bf 5e 3f bb 42 ae 3f ae 03 39 3f
       1.1418226 0.8701147 1.3614115 0.7227124
000050 af 00 9f 3f c0 b8 83 3f 59 73 6c 3f 40 33 2f 3f
       1.2422084 1.0290756 0.92363507 0.68437576
000060 a0 21 8d 3f b4 99 85 3f 09 b7 1b 3f 7c c5 38 3f
       1.1025887 1.0437531 0.60826164 0.7217634
000070 d1 70 68 3f 3e c9 79 3f c1 1f 79 3f e7 93 8b 3f
       0.90797144 0.97572696 0.9731408 1.0904511

backbone.2.1.bias f4 [32]
000000 e4 6b d2 3b 02 0e 2c bf fd 11 f5 be 0c cb 45 bf
       0.006421553 -0.67208874 -0.47865286 -0.7726295
000010 d5 ad 10 bf 14 22 74 be 63 f4 5b be 5f 0d 27 bf
       -0.56515247 -0.23841125 -0.21479945 -0.6525478
000020 96 06 cc be 0f e6 5a bf 61 14 03 bf 88 e2 e1 be
       -0.39848775 -0.8550729 -0.5120297 -0.44118142
000030 30 dc 44 bf af d2 ec be 55 8d bb be 7b 5a a8 be
       -0.7689848 -0.4625449 -0.36631265 -0.3288153
000040 55 d2 c8 be 45 ce 44 bc 50 27 15 bf e3 26 2e bf
       -0.3922297 -0.012012069 -0.5826311 -0.68028086
000050 0b f2 dc be 81 a1 19 bf 0e ec f8 be c2 24 b2 be
       -0.43153414 -0.6001206 -0.48617595 -0.3479367
000060 b5 b1 3f bf 14 87 40 be b2 42 07 bf 7f 45 02 bf
       -0.74880534 -0.18801528 -0.52836144 -0.5088729
000070 af e2 96 be 8b 0f af be af 35 c8 be 76 09 0c bf
       -0.2946982 -0.34191546 -0.39103457 -0.54701936

backbone.2.1.running_mean f4 [32]
000000 45 23 ed 3f 04 c3 2e c0 a8 6a 3c c0 fc 12 d6 3f
       1.8526388 -2.7306528 -2.9440098 1.6724544
000010 dd 4f 4a 3f 9d 59 73 40 27 60 ec c0 24 ad 17 40
       0.7902811 3.8023446 -7.3867373 2.3699427
000020 c2 6f 87 be 86 21 83 40 50 c3 9c bf 9f 04 b9 c0
       -0.26452452 4.097842 -1.2247105 -5.781814
000030 1a a1 b0 bd 7d e3 1e c0 68 ff 52 c0 56 f5 6c be
       -0.08624478 -2.4826348 -3.2968388 -0.23140463
000040 c6 6c 97 c0 65 d1 09 40 51 6f 33 be 7d 54 e5 3f
       -4.732028 2.1534054 -0.17522933 1.7916409
000050 b3 3e c9 bf a2 03 f2 3f de 17 e0 3f a4 af 0c bf
       -1.5722259 1.8907359 1.7507284 -0.54955506
000060 01 03 c7 be 92 0f 2b 40 f0 84 2a 40 1b 8a 1a c0
       -0.3886948 2.6728253 2.6643639 -2.4146793
000070 f0 78 c2 3f 11 9b 90 3e 3e 4c 2b bf 43 a7 90 3f
       1.5193157 0.28243306 -0.6691321 1.1301044

backbone.2.1.running_var f4 [32]
000000 98 ef 15 42 5c 4f 18 42 e2 ec 42 42 01 0c 1f 42
       37.48398 38.0775 48.73133 39.761723
000010 47 42 4d 42 c5 0f 49 42 2f 10 db 42 bb 5e 10 42
       51.314724 50.2654 109.53161 36.09251
000020 39 96 6c 42 8b 78 5f 42 e4 8f 18 42 47 a1 6e 42
       59.1467 55.867718 38.14052 59.657497
000030 62 75 8f 41 2f 0f 4f 42 99 8a 79 42 15 5d ef 41
       17.932316 51.764828 62.38535 29.92045
000040 66 b1 87 42 3f 3b 30 42 79 50 c9 41 62 8d 27 42
       67.84648 44.057858 25.164293 41.88807
000050 76 d6 49 42 ca 89 21 42 bc 78 38 42 a8 f6 3e 42
       50.459435 40.38456 46.117905 47.740875
000060 7d d8 08 42 79 c4 4a 42 7f 68 1a 42 bc 04 42 42
       34.211414 50.691868 38.602047 48.504623
000070 b5 ba 03 42 fb 74 bb 41 fe ea 22 42 4e 10 32 42
       32.93233 23.43212 40.729485 44.515923

backbone.4.0.weight f4 [64, 32, 3, 3]
000000 d7 9b e7 bd ca a1 fc bc 0c 8e a4 3e 46 15 b5 bc
       -0.11309021 -0.030838866 0.32139623 -0.02210487
000010 35 74 25 be ae 2f 04 3e 43 33 2e 3e 3d 69 fb bc
       -0.1615761 0.12908813 0.17011742 -0.03068983
000020 b6 50 6e bd 46 a4 b8 be 3e 2f 3f be 57 f6 53 3e
       -0.05818244 -0.3606283 -0.18670365 0.2069944
000030 03 51 ad be b5 86 ef bd 34 c2 78 3c d1 2c d6 be
       -0.3385087 -0.11695615 0.01518302 -0.41831067
000040 33 29 1e 3e 99 4b 88 be 61 32 25 bf 48 be e7 be
       0.15445404 -0.26620176 -0.6453 -0.4526236
000050 15 ef 5f 3c ae 16 b3 be 49 0f 96 bd 0e 7e a4 bb
       0.013667841 -0.3497824 -0.07327134 -0.0050199097
000060 5b 1d 9c 3e 2b e6 ad bd b3 57 56 bd 9d d3 76 3e
       0.30491146 -0.08491167 -0.05232973 0.24104162
000070 2b d3 d5 3d 41 70 53 3f 58 d3 66 3e 5c d9 83 3c
       0.10440668 0.8259316 0.22541559 0.016094856
000080 00 c9 5c 3e 12 e0 d4 3d 01 b8 6a 3e e4 cf 00 be
       0.2156105 0.103943005 0.22921754 -0.12579304
000090 64 42 17 bf 92 24 0f bf 05 13 9a be cb 0c 36 be
       -0.5908568 -0.55915177 -0.30092636 -0.17778318
0000a0 89 ed d6 3c 5f ff 11 3e ff 30 a0 be 99 94 a3 bc
       0.026236312 0.14257573 -0.3128738 -0.019968318
0000b0 81 2c e6 bd 55 89 1b 3e 9f 09 13 3d 64 f2 10 3f
       -0.11238957 0.15189107 0.035897847 0.5661986
0000c0 6c 78 68 bd b1 08 8e 3e 25 ec b2 3e 10 43 91 be
       -0.05675547 0.27741006 0.3494579 -0.28371477
0000d0 a6 80 e5 3d ae 39 d6 bd 3a 37 75 3d 3b 9a a6 be
       0.11206178 -0.1046022 0.05986712 -0.32539544
0000e0 1d e8 96 be a3 28 e2 bd d9 52 d7 be 34 49 23 3e
       -0.29473963 -0.11042907 -0.42055395 0.15945894
0000f0 98 f5 cf bd a5 e3 be bd 29 f0 3d 3e b8 c3 d0 bd
       -0.10154265 -0.093207635 0.18548645 -0.101935804
000100 a5 35 a4 bd e8 38 0d be ec 6f 34 be 79 d5 28 bd
       -0.080180444 -0.1379124 -0.1762082 -0.04121921
000110 4e 6b f3 bd d3 25 f5 be b1 50 25 3d 99 d3 8a be
       -0.11885701 -0.4788042 0.040360156 -0.2711456
000120 07 3c 3b bf 71 e6 8a be 21 31 3c bc 7d 16 a4 be
       -0.7313847 -0.27128938 -0.011486323 -0.32048407
000130 3b a4 be bc 9a bb 3b 3d c7 85 a4 be 79 37 98 3e
       -0.02327167 0.045833208 -0.32133314 0.29729822
000140 08 de 98 bd 78 c2 d9 3d 7d 6a cd 3e 1a 04 f3 3e
       -0.07464224 0.10632795 0.40120307 0.47464067
000150 a7 b9 48 3e 93 df a3 3d 0f ca 2a 3e 3a 7c c2 3d
       0.19602071 0.08001628 0.16678642 0.094963506
000160 ea fa 41 3d 2c bb 53 3e ec 20 b6 be c3 f3 53 be
       0.04735843 0.20676869 -0.35571992 -0.20698456
000170 e1 3d c2 be 78 7a 0c be 59 f2 98 3e 13 ae f1 3d
       -0.37937835 -0.13718593 0.29872397 0.1180078
000180 a0 62 2a bd 67 6f 79 3e 37 d3 41 3e f7 25 07 bf
       -0.041597962 0.24358903 0.18928228 -0.52792305
000190 b2 b6 8a be 43 45 ad bb 5d fb a5 be dd 55 b4 be
       -0.2709251 -0.0052877977 -0.32418337 -0.35221758
0001a0 9b 07 19 bd 8b e6 0a 3e 3e 72 7f be f0 8b e6 bd
       -0.03736077 0.13564508 -0.24945924 -0.1125716
0001b0 34 58 be 3e 81 22 c3 3c 8f d9 d5 3e 93 5b af 3b
       0.3717667 0.023820164 0.41767547 0.0053514927
0001c0 19 c1 14 3e 97 6a 84 3e 86 8e 66 3e b7 ee c7 3d
       0.14526786 0.25862572 0.22515306 0.09762328
0001d0 d7 89 09 be 94 d2 3d be 6b 8d 1f be df 18 c0 3d
       -0.13431488 -0.1853736 -0.1558129 0.09379744
0001e0 0d 41 56 bd 22 d8 57 3e 94 73 99 3e c3 7b 8f 3e
       -0.05230813 0.21078542 0.29970992 0.2802411
0001f0 f8 15 e1 bc 4e 03 52 bd c5 2f ab 3d b0 64 e4 bd
       -0.027476296 -0.051272683 0.08358721 -0.11152017
000200 68 e9 89 3e 16 7f 85 3d 82 29 0a bd c5 55 0c bd
       0.26935887 0.0651838 -0.03373099 -0.034261484
000210 4f 1a 69 3e 48 42 10 3e 7e f6 d6 bd b0 b2 3f 3d
       0.22763942 0.14087784 -0.104962334 0.04680127
000220 dc ba 0a be a3 f2 ce 3d 79 52 de 3b c6 61 a5 3e
       -0.13547844 0.10104873 0.006784734 0.32301158
000230 c1 e7 15 3e 6c 2b bb 3b c2 72 43 3e 4b 82 29 be
       0.14639188 0.0057119634 0.19086745 -0.16553609
000240 ef 40 80 3d 34 b9 ca 3e d1 f8 b3 3e 10 96 2d 3e
       0.06262385 0.39594424 0.3515077 0.16951776
000250 ed 8c 11 3d cd 51 64 be 04 9e 9b 3e 24 e9 ec 3c
       0.035534788 -0.2229683 0.30393994 0.028919764
000260 5b fe a2 be c3 27 e8 be c7 c5 0c be 0b 4c 45 bc
       -0.31834683 -0.45342836 -0.13747321 -0.012042056
000270 9f 4d f1 bc d6 ff b6 bd 96 13 60 3d 0d 95 3b 3e
       -0.029455958 -0.089355156 0.05470618 0.18318577
000280 52 65 3a 3d 3f 58 32 bd 1e 02 ab be 18 73 0c bf
       0.045506783 -0.04354119 -0.33400053 -0.5486312
000290 04 90 e2 be ab 40 b1 be f7 32 9b be 21 3a 89 3c
       -0.442505 -0.3461965 -0.3031232 0.01675135
0002a0 c7 2d 9f be 5e 67 5c 3c 79 23 f4 3c a9 a3 63 be
       -0.31089613 0.013452379 0.02980207 -0.222304
0002b0 88 18 24 3c 49 be cc 3e 5b e2 a1 3d 92 39 89 bd
       0.010015614 0.39988926 0.07904502 -0.06700434
0002c0 4f 7c f8 3d c7 8f c6 bd 41 2f 3a 3d 5f 36 8e bd
       0.12133085 -0.09695392 0.04545522 -0.06943964
0002d0 6d 81 1c be 81 24 c6 bd dc 8f 9e be d6 3d fd bc
       -0.15283747 -0.09674931 -0.3096913 -0.030913275
0002e0 2a 37 a7 be 06 47 c7 be 44 7f 3d bd b1 5b 84 be
       -0.32659274 -0.38921374 -0.046263948 -0.25851205
0002f0 ae 5d cf be 9f 8e 61 3e be 6e 0d 3b 7c f6 db 3c
       -0.4050116 0.22027062 0.00215809 0.026850931
000300 49 24 b6 3b 98 8f 37 3d 97 00 16 be 1d 94 92 be
       0.0055585247 0.044814676 -0.14648663 -0.28628626
000310 4d 92 9e bd 68 3e 0e be e1 5e 22 bf 80 01 e7 be
       -0.077427484 -0.13890994 -0.63426024 -0.45118332
000320 e2 a6 0a bf e7 16 68 be c7 8a ce bd 01 a5 9c 3d
       -0.5416089 -0.22664987 -0.100850634 0.076486595
000330 14 fe 59 be 50 d5 f3 3d 58 b9 69 3c d6 65 33 bd
       -0.2128833 0.119059205 0.014265381 -0.04379829
000340 56 f9 0a 3d 8a e8 8b 3d a9 66 26 bd 0c 5e a5 bd
       0.03392919 0.06831463 -0.040625248 -0.08074579
000350 1b 49 05 be 91 c3 83 3b a0 f5 9b 3d 35 51 aa be
       -0.13016169 0.004021116 0.076152086 -0.3326508
000360 c8 28 c3 3d 8c dc 2b 3f d4 c5 13 3f 21 20 53 3e
       0.09529263 0.671334 0.57723737 0.20617725
000370 27 f5 93 3e 81 68 34 3e 19 4d b2 3e 7e cb 6a 3e
       0.28897974 0.1761799 0.34824446 0.22929189
000380 0b 69 6a be 53 a2 4a bf 19 62 12 bf 84 df 30 be
       -0.22891633 -0.7915394 -0.57180935 -0.17272764
000390 20 02 5f bf 8c 30 87 be bd f0 01 3e f8 0a ec be
       -0.8711262 -0.26404226 0.1268949 -0.46102118
0003a0 0a 56 1a bc 15 ac 12 3d 4c c8 5a 3d bb f8 1f be
       -0.009419927 0.03580864 0.053413674 -0.15622227
0003b0 16 6e 97 3e 95 5a 20 3e 9d a4 0a 3f 51 22 a3 3e
       0.29576176 0.15659554 0.5415743 0.3186212
0003c0 d4 d2 3a 3e 35 d0 82 3d 39 24 c3 bd a3 6e 4f 3c
       0.18244487 0.063873686 -0.09528393 0.012660655
0003d0 a0 55 b5 3e 5d 7d df 3b 05 7b 86 be c9 f5 3b 3c
       0.3541689 0.0068203644 -0.2626573 0.011472174
0003e0 b1 88 8d bd 09 a9 f5 3d 7f 0f 83 be 50 8b 6c be
       -0.069108374 0.119951315 -0.2559776 -0.23100019
0003f0 9a e8 bf be 7e 77 20 be f7 e5 bf bd 8a 75 6e be
       -0.37482148 -0.15670583 -0.09370034 -0.23287025

backbone.4.1.weight f4 [64]
000000 7d 20 44 3f 7a e4 60 3f 77 8f 41 3f b6 9a 65 3f
       0.76612073 0.8784863 0.75609535 0.89689195
000010 cd 55 6f 3f a5 17 8e 3f 1e a2 99 3f b2 cb 67 3f
       0.93490297 1.1100966 1.2002599 0.9054519
000020 a0 fd 8a 3f 63 4c 2f 3f 49 53 91 3f 9d 9b 5f 3f
       1.085865 0.6847593 1.1353542 0.8734682
000030 9f 1e 89 3f 9f bc aa 3f 07 f8 8c 3f b8 bd 9d 3f
       1.071247 1.3338813 1.1013192 1.2323523
000040 2e 85 56 3f d8 c6 81 3f 93 7b 0c 3f 65 be e4 3e
       0.83796966 1.0138807 0.5487606 0.4467651
000050 6c ab 88 3f c3 f6 38 3f 3c 5f eb 3e 00 7e 6e 3f
       1.0677314 0.7225153 0.45971096 0.9316101
000060 b7 d1 9f 3f 69 78 84 3f 39 b9 99 3f 4e 31 91 3f
       1.2485875 1.0349246 1.200965 1.1343172
000070 00 cf 7d 3f c3 16 4d 3f f6 62 68 3f 06 4e 39 3f
       0.9914398 0.80112857 0.90776 0.7238468
000080 63 86 64 3f 0e c9 3b 3f 47 27 62 3f 52 5b 56 3f
       0.8926756 0.7335366 0.8834118 0.83733094
000090 7f 3c 87 3f 3b 19 4f 3f 0f 5c 3c 3f 10 50 35 3f
       1.0565337 0.80897874 0.7357797 0.7082529
0000a0 2b 44 2e 3f c7 0c 68 3f 6d 03 ac 3f 54 48 89 3f
       0.68072766 0.90644497 1.3438545 1.0725198
0000b0 11 1d 70 3f 05 64 56 3f c3 3d 43 3f fb 55 96 3f
       0.9379435 0.8374637 0.76266116 1.1744989
0000c0 70 cc 9a 3f ce b7 6d 3f 8c 47 85 3f 4d 41 9c 3f
       1.2093639 0.9285859 1.0412459 1.2207428
0000d0 b9 eb da 3e 50 1e a4 3f e8 d4 63 3f 30 66 4d 3f
       0.42757967 1.2821751 0.88996744 0.8023405
0000e0 fa 6e 8e 3f 8e 2f 86 3f 61 2c a2 3f a7 83 9b 3f
       1.1127617 1.0483263 1.2669793 1.2149552
0000f0 1c 14 6f 3f 96 a6 34 3f 7b ba 4d 3f 2e 00 91 3f
       0.9339006 0.7056669 0.8036267 1.132818

backbone.4.1.bias f4 [64]
000000 f9 1d 73 be 3c 35 dc be 89 fe 88 be fa 75 bb bd
       -0.23741902 -0.43009365 -0.26756695 -0.091533616
000010 b7 98 67 be 95 7f 95 be 17 7e 24 be c4 e1 39 be
       -0.2261685 -0.291989 -0.16063724 -0.18152529
000020 7e 3f 06 be c6 4c b2 bd eb d2 22 be b0 1b b1 be
       -0.13110158 -0.087060496 -0.15900771 -0.34591436
000030 25 74 d2 be 6f 59 e2 be 5b 17 55 be 3b cb 10 be
       -0.41104236 -0.44208857 -0.2080969 -0.14140026
000040 a8 3b a7 be 6f d9 61 be 41 5c c8 be 33 bf 21 bf
       -0.32662702 -0.220556 -0.39132884 -0.6318237
000050 6e c5 f5 be 25 ee c0 be 7e 9e 28 bf 0a 81 56 be
       -0.4800219 -0.3768169 -0.6586684 -0.20947662
000060 b4 e1 a3 be fb a5 9d be 64 a0 53 be 5c 87 9d be
       -0.32008135 -0.30790696 -0.20666653 -0.30767334
000070 45 ff 97 be d1 32 59 be cf 9a f0 be 42 41 84 be
       -0.29686943 -0.21210791 -0.4699311 -0.25831038
000080 d3 a2 dc be 1a 37 8b be a7 e4 bb be c6 56 a0 be
       -0.43092975 -0.27190477 -0.36697885 -0.31316203
000090 97 81 77 be 76 8c 2c be ba a1 bf be 8c 69 af be
       -0.24170528 -0.16850457 -0.37428075 -0.34260213
0000a0 59 e5 9d be 37 1e 2e be 4b 2f a6 be 38 74 4c be
       -0.3083904 -0.17003714 -0.32457957 -0.19966209
0000b0 fd 34 25 bf 73 0c c1 be de 37 3b bd 75 45 8a be
       -0.6453398 -0.3770481 -0.045707576 -0.27006117
0000c0 20 6d 1c bf a2 5e 8c be 97 31 40 be 0e 96 69 be
       -0.6110401 -0.2741595 -0.18768917 -0.22811148
0000d0 c3 63 ab be 51 d8 f4 be 75 59 04 be 84 4e 8c be
       -0.3347455 -0.47821286 -0.1292475 -0.27403653
0000e0 ea 71 06 be 00 62 2e 3e 92 d7 20 be 04 ac 3b be
       -0.13129392 0.17029572 -0.15707234 -0.18327338
0000f0 86 f4 4d be 3a 3f db be 38 ee 6c be d3 39 73 be
       -0.2011281 -0.42821676 -0.23137748 -0.23752527

backbone.4.1.running_mean f4 [64]
000000 a6 2a 29 c0 23 d5 9b 40 67 ce 5f c0 3a b0 68 40
       -2.643228 4.8697677 -3.4969728 3.635756
000010 2d bb 8d bf 7b c4 9b 40 c5 0a e5 40 b8 4b f1 3f
       -1.1072747 4.8677344 7.1575646 1.8851233
000020 56 7c 58 41 c6 34 15 3f 89 e3 ea 40 67 2f 7a c0
       13.530355 0.5828365 7.3402753 -3.9091432
000030 4c 59 91 3f 39 e9 02 41 18 2a 94 bf 3b fd e0 40
       1.1355376 8.181939 -1.1575346 7.030912
000040 d5 bb 8e 40 cf df 69 40 11 91 a8 40 5e 98 ac 3f
       4.4604287 3.6542852 5.2677083 1.3483999
000050 ed 6b 85 40 7a 3b 5f 3f d6 41 83 40 11 bd d7 40
       4.1694245 0.8720013 4.1017866 6.7418294
000060 02 f0 b7 40 b9 44 95 3f bd 12 8b 40 98 06 32 40
       5.748048 1.1661597 4.3460374 2.7816525
000070 09 a8 5e 40 1a 93 20 41 90 1a 6f 40 4e fe 32 c1
       3.479006 10.035913 3.7359962 -11.187086
000080 37 dc df 40 fb 8d e3 40 1a d6 9d 40 f2 91 bc 40
       6.9956317 7.1110816 4.9323854 5.8928156
000090 e1 ad 3b 40 7f 2b fb bf dd c4 02 be ae 4b 9b 3f
       2.9324877 -1.9622649 -0.1277041 1.2132471
0000a0 06 e6 d9 40 5d b5 20 41 c0 3a e7 3f ba 98 35 41
       6.809329 10.044278 1.8064804 11.349787
0000b0 16 86 3a 40 a5 20 38 41 2a 72 7a c0 40 68 27 40
       2.914434 11.50797 -3.913218 2.615738
0000c0 93 fa 33 41 0d 60 41 41 2d 6e 10 41 01 a0 f2 3f
       11.248675 12.08595 9.026898 1.8955079
0000d0 ee 46 1d c0 e7 b0 e1 40 e0 35 45 bf d5 a5 96 bf
       -2.4574542 7.0528445 -0.7703533 -1.1769358
0000e0 c8 a1 03 3f b0 1f 0a 41 a6 4a 37 41 3b 1d b0 40
       0.51418734 8.632736 11.455725 5.503568
0000f0 91 c8 2c 40 09 bb 2e 41 2c ef 5e 40 40 d7 07 41
       2.6997416 10.920663 3.483348 8.490051

backbone.4.1.running_var f4 [64]
000000 df af 04 42 b8 c8 60 42 1e 6c 7f 42 3e ab 30 42
       33.17175 56.196014 63.855583 44.16723
000010 76 5e 30 42 3a c9 81 42 01 72 2e 42 35 c7 7c 42
       44.092247 64.89302 43.611332 63.19454
000020 74 ad 35 42 f8 96 8c 42 c4 23 5a 42 35 02 25 42
       45.419388 70.29486 54.534927 41.252155
000030 19 a3 2d 42 a5 b3 4a 42 ff 6a 3d 42 54 b9 36 42
       43.409275 50.675434 47.35449 45.680984
000040 02 ab 33 42 b2 d4 2f 42 5a fc 58 42 64 8b 14 42
       44.917 43.95771 54.246437 37.136124
000050 72 54 20 42 9e 70 f7 41 0d 11 0a 42 88 2b 30 42
       40.082466 30.929989 34.51665 44.04251
000060 ce 59 38 42 a0 ed ec 41 a2 32 79 42 48 b7 ab 41
       46.0877 29.616028 62.299446 21.464493
000070 cc 8c 63 42 54 5d 3a 42 1d 95 4d 42 d9 26 97 42
       56.887497 46.59114 51.39562 75.575874
000080 0b f4 15 42 23 b2 3d 42 e8 c3 47 42 0c e5 2e 42
       37.488323 47.42396 49.941315 43.72368
000090 06 d0 51 42 99 c6 75 42 ba 5a 5c 42 82 0d 25 42
       52.453148 61.443943 55.0886 41.26319
0000a0 2e 9c 4c 42 20 d8 79 42 98 f6 3c 42 a7 1b 44 42
       51.15252 62.46106 47.240814 49.027004
0000b0 de 46 44 42 e0 40 2b 42 85 91 74 42 e8 b2 19 42
       49.069206 42.813354 61.14211 38.424713
0000c0 c7 fa 3d 42 7d b7 36 42 01 6d 5a 42 25 ef 86 42
       47.4949 45.679188 54.60645 67.46708
0000d0 9a 01 16 42 7c e1 4f 42 a7 54 32 42 9e c3 4d 42
       37.501564 51.9702 44.58267 51.441032
0000e0 f6 83 32 42 5a fe 95 42 4e 2a 6b 42 85 e4 33 42
       44.62887 74.99678 58.791313 44.973164
0000f0 29 5d 87 42 7d df 32 42 1c 35 1a 42 e1 0e 4c 42
       67.68195 44.71825 38.551865 51.01453

backbone.6.weight f4 [128, 64, 1, 1]
000000 6c 61 c1 3d 30 46 cc bd b2 fa 5e be 3d e7 de 3e
       0.0944241 -0.09974325 -0.2177532 0.43535796
000010 4a 89 ca 3e 8d 08 1c bd 27 38 67 bf f4 5b 87 3e
       0.39557868 -0.038094092 -0.90320057 0.26437342
000020 34 66 56 be 03 b8 8d be ab c2 c3 bd 78 40 29 3f
       -0.20937425 -0.27679452 -0.09558614 0.66113997
000030 88 b9 5d 3e 87 d6 a1 bd ce 93 81 be 47 ed 31 bd
       0.21652806 -0.07902246 -0.2530808 -0.043439176
000040 d3 3a 8b be 92 9a 4e be 94 30 28 3e e9 55 90 3e
       -0.27193317 -0.20176151 0.16424781 0.28190544
000050 8b c7 c9 bd 17 11 95 3e 71 f4 2d 3e 0e 99 c9 3e
       -0.09852513 0.291146 0.16987778 0.39374584
000060 e5 48 2a bf 0e 53 3d 3e 47 4d 1e bf 84 b0 ec 3e
       -0.6651748 0.18488714 -0.61836666 0.4622842
000070 00 e6 90 3e 37 be 70 3d 31 a7 a1 3e d3 6d e0 3e
       0.28300476 0.058775153 0.3157287 0.4383379
000080 7a 73 ab 3e 10 e7 76 be 17 eb fd 3e 3b d7 20 3e
       0.3348654 -0.24111581 0.49593422 0.15707104
000090 01 3e bc 3e ae 20 1c be 12 0a e5 3d 89 46 04 3e
       0.36766055 -0.15246841 0.111835614 0.12917532
0000a0 be 8f 87 bd 68 44 9b 3d ba 89 7e 3d 70 47 70 bd
       -0.066192135 0.07581407 0.062143065 -0.058661878
0000b0 2d 18 dc 3c 9d e4 22 3e f6 91 9b bb b4 46 96 3d
       0.026866997 0.15907522 -0.0047476245 0.07337704
0000c0 aa 14 6f 3e 96 84 d9 3e 62 19 87 be ba b2 fe 3d
       0.23347726 0.42483968 -0.26386553 0.12436433
0000d0 59 06 ca 3e bc 40 82 be cc 6e f8 be bb ed de 3e
       0.39457968 -0.25440013 -0.4852203 0.4354075
0000e0 d0 6c 0d 3f 0a bd 9f 3c 92 ad 25 bd 4d 73 97 be
       0.5524416 0.01949932 -0.040448733 -0.29580155
0000f0 8a 5b a3 bd b8 32 a8 be 8f 5f 3d be c1 43 7d 3e
       -0.07976444 -0.32851195 -0.18493484 0.24732877
000100 4b 13 15 be 91 10 54 be 52 d3 4d bd f9 d2 f7 3c
       -0.14558141 -0.20709445 -0.05025036 0.030251967
000110 c6 e5 95 3e 9a be 8c 3e f8 42 09 3f a0 17 c3 be
       0.29276866 0.27489167 0.5361781 -0.38103962
000120 41 7d e8 be 04 6b 66 3e 18 e2 bc be 54 3b 03 bf
       -0.4540806 0.2250176 -0.36891246 -0.512624
000130 7f ab 90 be 0b 4f ec bd 0b 9b 56 3e 8e 0e 59 3e
       -0.2825584 -0.11538514 0.20957582 0.21196958
000140 18 7b fb 3d 64 62 f5 3e 84 98 b1 3e 4a 93 02 3e
       0.12279338 0.4792663 0.34686673 0.12751499
000150 17 64 17 bd 04 fc 39 bf f8 48 96 3d 35 d1 2e 3d
       -0.036960687 -0.7265017 0.073381364 0.042679984
000160 5b b0 2b 3f 4d 1b 69 3e 89 4a 21 3e a0 af 60 3d
       0.6706597 0.2276432 0.15751089 0.05485499
000170 28 15 5f be 51 fa f7 3d 4e 4e 01 be e6 a8 94 be
       -0.21785414 0.12108291 -0.12627527 -0.2903511
000180 65 21 39 3d fa 5e e5 bc 96 98 69 be e3 62 94 3d
       0.045197863 -0.02799939 -0.22812113 0.07245424
000190 23 a3 83 be 6c 65 97 3d b7 70 e2 be 2f 61 a0 be
       -0.257104 0.073923916 -0.4422662 -0.31324145
0001a0 89 f5 b2 3e 7c 39 39 3e 23 04 f3 bd f0 ea 16 bf
       0.34952953 0.18088335 -0.118660234 -0.58952236
0001b0 25 ee 07 bf 56 6b fa 3d 14 63 a5 3e 7a fe 7e 3c
       -0.53097755 0.12227504 0.32302153 0.015563602
0001c0 c3 50 33 3e 00 28 af 3d 86 31 f3 3e f8 c3 56 bf
       0.17511277 0.08552551 0.4749872 -0.83892775
0001d0 a1 77 b3 bd 73 c4 78 be f8 3a ca bd 60 e6 8d bd
       -0.08763052 -0.2429369 -0.09874529 -0.06928706
0001e0 8d 11 65 3e b7 e2 e8 3e 74 c6 f6 3d 1a 46 59 3f
       0.22369976 0.4548547 0.12049571 0.8487259
0001f0 45 e9 2a 3e 06 0c 83 be f2 52 60 3e 2c a8 1d be
       0.16690548 -0.2559511 0.21906641 -0.15396184
000200 41 63 61 be 86 dc 14 be 05 e3 02 3e 34 e8 0b be
       -0.22010519 -0.14537248 0.12781914 -0.13662797
000210 23 78 c6 3d e7 50 d8 be 6e 67 84 3d 6b 24 0a bf
       0.09690883 -0.42249224 0.0646504 -0.5396182
000220 b8 9c 83 bd 7c 5f de 3e 3e 81 dd 3e 1f a0 1a 3e
       -0.06426376 0.43432224 0.43262666 0.15100144
000230 54 f1 32 3f d6 8f 07 3e 9e 8f 8e 3e af af 26 bf
       0.6989949 0.13238463 0.27843946 -0.6511182
000240 f8 f8 85 bc a1 de 21 3e 81 64 2d 3e 73 6c 4a be
       -0.01635407 0.15807582 0.1693287 -0.19767933
000250 1e 74 dd 3c f0 23 82 3e 5f 10 a6 3d 2c a4 c6 3c
       0.027032908 0.25418043 0.08108591 0.024248205
000260 71 e1 67 be 53 be b4 3e 39 65 d0 bd c6 4e 3c 3f
       -0.22644593 0.35301456 -0.10175557 0.735577
000270 a1 1c 6a 3d 69 6f b6 3d 19 ba 9e 3e 65 68 1d be
       0.05715621 0.089079686 0.31001356 -0.15371855
000280 9d fe da 3d 92 7f 2f 3e c9 1d c0 3e ce c8 48 3d
       0.10693095 0.17138508 0.37522724 0.049019627
000290 05 95 46 3e bb d6 93 be 50 fa 06 3f 91 19 2d 3f
       0.19392784 -0.28874764 0.52725697 0.67617136
0002a0 1c 18 8e bd 2a 63 93 be c7 9e de be a3 36 5e be
       -0.06938192 -0.28786594 -0.43480512 -0.2170053
0002b0 1d e4 ba 3e 7f f4 90 bc dc ce 8e 3d 44 e3 2f be
       0.36502162 -0.01769471 0.06973049 -0.17176539
0002c0 d2 bb 0c bf 02 28 b4 bc 5d 7a 56 be 91 8b a5 3e
       -0.5497409 -0.021991733 -0.20945115 0.32333043
0002d0 31 cd 80 3e 5b 10 a8 be ed 71 74 3d 41 9a af 3e
       0.2515655 -0.32824978 0.05967896 0.34297374
0002e0 68 33 a8 3e 11 ea 2c bf 5d ee 23 3f ed 89 94 3e
       0.3285172 -0.67544657 0.6403559 0.2901148
0002f0 6c f3 82 be 99 af 70 3e fe f0 a8 bc da 5a 45 be
       -0.2557634 0.23504485 -0.020622727 -0.19272938
000300 a6 54 8f bc c1 1d be bc eb 90 96 be 40 ae ea 3e
       -0.017496418 -0.023207547 -0.2940744 0.45836067
000310 3e 63 1c 3e 78 76 12 3e 58 35 ae be df 98 f3 3e
       0.15272233 0.14303005 -0.34025073 0.4757757
000320 a8 b6 c7 3e df 3a d9 be 9c 76 b2 3e 79 75 ae be
       0.39006543 -0.42427728 0.34856117 -0.34074
000330 ed 64 a5 3e 64 aa 66 bd 6d b0 b2 be 49 76 16 bf
       0.32303563 -0.05631484 -0.34900227 -0.5877424
000340 f8 87 16 3e f8 8b af 3d 44 3d 71 3e 9d 36 81 3d
       0.14700305 0.08571619 0.23558527 0.06309245
000350 1a 31 53 3e d5 11 e2 3e 4c 21 d0 3e 9a 5e ed bc
       0.206242 0.4415423 0.40650403 -0.028975774
000360 08 db b9 be c6 90 80 3e 53 40 07 bf e3 f3 96 3e
       -0.3629992 0.25110453 -0.52832526 0.29482946
000370 65 39 1d be 5a 0d b3 3d 4a 4c d5 3e 46 0e 78 3e
       -0.15353926 0.08742781 0.41659766 0.24224195
000380 57 b9 1d 3e 92 d7 a8 3d 4d 58 be be 8d 7a 05 3c
       0.15402733 0.08244242 -0.37176743 0.008146894
000390 5d e7 21 3f 60 9f f2 3e 65 62 b8 3d 08 4e c4 bd
       0.6324366 0.47387218 0.09003142 -0.09585196
0003a0 68 c4 4e 3e bd 36 58 be 43 cd 7a be 01 21 d2 be
       0.2019211 -0.21114631 -0.24492364 -0.41040805
0003b0 cb a8 24 3e 51 6b ec be cf 68 d1 3d ed fe e9 bd
       0.16080014 -0.46175626 0.10225069 -0.11425576
0003c0 7d 07 7c bd e7 de 8e be d8 ce e9 be 37 57 ea 3d
       -0.06153058 -0.27904436 -0.45665622 0.11442416
0003d0 28 4b 99 bd 9c 7a 8b bd f6 57 cd be 80 bd 39 bd
       -0.07485038 -0.06810495 -0.4010617 -0.045346737
0003e0 a5 64 59 3c 4b 33 45 3d c0 a5 eb 3d d9 ec a0 3d
       0.013268624 0.04814462 0.11506224 0.07857675
0003f0 a7 be e9 3e 22 cf dc bd f4 a1 b5 bd 04 2f 48 3c
       0.4565327 -0.10781695 -0.08868781 0.012218241

backbone.7.running_mean f4 [128]
000000 33 b8 fe 3d d5 05 03 3f ed 8d 87 3e 55 5c 19 be
       0.12437477 0.51180774 0.26475468 -0.14976628
000010 3b 60 74 be 8c d1 5b 3f 0e da 9d 3d 6b f2 5b 3d
       -0.23864834 0.8586662 0.07707606 0.053697985
000020 15 8f da bf ba a2 47 bf 92 ae bc 3c 58 a4 8e be
       -1.7074915 -0.77982676 0.02303246 -0.2785976
000030 4f 09 bb bf db de 2f bf e8 ea 97 be 8e 0a c5 3f
       -1.4612216 -0.68699425 -0.29671407 1.5393846
000040 d9 ca 1f be 3b f7 e7 3e e2 72 dd 3e 3d 32 2f be
       -0.15604724 0.4530581 0.4325171 -0.17109008
000050 d0 89 ce 3e ff 52 3b be 08 5c 80 bf 00 fc 51 3f
       0.40339518 -0.18293379 -1.0028086 0.82025146
000060 6e d6 b2 be 85 d7 1f bf 1b e9 1f 3e c4 f0 3e bf
       -0.34929222 -0.6243823 0.15616266 -0.7458613
000070 49 2e 89 3f 4f 73 44 3e 7c c1 ee bf d3 44 29 3e
       1.071725 0.19184612 -1.8652797 0.1653016
000080 91 d5 07 3f 98 1f 33 3f 6a 13 84 3e 23 62 05 3f
       0.5306025 0.69970083 0.25796062 0.5210287
000090 42 15 2a 3e 7f 78 16 3b 20 90 cd bd 7e 97 3f 3f
       0.16609672 0.0022960005 -0.10037255 0.74840534
0000a0 e6 4c 59 bf 2e 3c 0f bf 5a 28 12 bf 8a 8e 31 3e
       -0.8488296 -0.559512 -0.5709282 0.1733953
0000b0 67 8d 80 3f dd d8 e3 be 1d 3d 70 bf a5 b0 a8 be
       1.0043153 -0.4450139 -0.9384325 -0.3294727
0000c0 9b 06 fb 3a 80 ae c1 bf 05 58 a5 bf 2a 54 aa be
       0.0019151749 -1.5131378 -1.2917486 -0.33267337
0000d0 56 e1 a6 be 75 01 2b bd b1 11 ac bf 58 46 cc be
       -0.32593793 -0.041749436 -1.3442899 -0.39897418
0000e0 dd cc c5 3f 21 c1 90 bf f2 1f a0 3e 3b c0 1d 3f
       1.5453144 -1.1308938 0.31274372 0.61621445
0000f0 b9 21 93 3e 88 26 cb bf eb 9e 89 3f 0d 3f 13 bf
       0.28736666 -1.5871134 1.0751623 -0.5751808
000100 5e 6f c7 bd 53 49 5a 3f b7 8c e7 3e 6e 73 c0 bd
       -0.097380385 0.85268134 0.45224544 -0.093970165
000110 d8 c9 0e 3e 57 5a b2 3f f8 62 55 3f 71 2b 0b bf
       0.13944185 1.393382 0.8335414 -0.5436316
000120 88 c6 ec be ad 64 19 be 99 91 2f bf ed ac 0f 3f
       -0.46245217 -0.14979811 -0.6858154 0.5612324
000130 66 83 0c 3e 19 17 85 bf f3 47 0b 40 3f 52 54 3e
       0.13722 -1.0397674 2.1762664 0.207345
000140 d1 f0 1f 3f 3a 0d d4 3e 24 8b 69 3f 10 da 2a 3f
       0.6247683 0.4141634 0.91227937 0.66738987
000150 d0 9a f1 3f b3 07 87 3e f6 45 9a bf 99 f5 4b 3f
       1.887537 0.26373062 -1.20526 0.7967163
000160 a4 0f 00 3f f6 6d 18 bf 27 c8 55 bf 9a 14 8a be
       0.50023866 -0.5954279 -0.83508533 -0.26968843
000170 b9 37 aa 3f a5 9d 78 3e 3f 5f 90 bf e3 c8 5c bf
       1.3298255 0.24278887 -1.1279067 -0.8624403
000180 bf 4d 7a be 7c a7 b5 3e 8f bc bf 3e c9 e8 8f bf
       -0.2444372 0.35479343 0.37448546 -1.1242915
000190 c2 ad bc bf 3c ce 1f 3e e4 86 4d bf 06 73 e0 bd
       -1.4740527 0.15606016 -0.8028395 -0.10959439
0001a0 73 c1 4f 3e 30 19 79 3f aa 10 c7 3f 58 a7 a5 3e
       0.20288639 0.9730406 1.555196 0.32354236
0001b0 33 23 45 bf 15 eb 32 3f 57 30 74 bf b5 15 98 3e
       -0.77006835 0.69889957 -0.9538626 0.2970406
0001c0 c8 07 d2 3f 49 c9 45 bf 03 10 ad 3e a5 07 13 bf
       1.6408625 -0.7726026 0.33801278 -0.5743354
0001d0 57 da b1 3e 17 2f bd bf 02 c3 31 3f 23 ff b4 3e
       0.34736893 -1.4779996 0.69438183 0.35350904
0001e0 94 b7 a2 bf f5 20 3c bd 98 4b 45 3f c8 fd 0a 3f
       -1.2712274 -0.045929868 0.7706847 0.5429349
0001f0 dd 31 d2 be c6 4f b7 bf 83 e3 cb bf ec c0 aa be
       -0.41053668 -1.432122 -1.5928806 -0.33350313

backbone.7.running_var f4 [128]
000000 1c e1 5c 3f 00 c9 9e 3f eb 8f 4a 3f b9 0b 46 3f
       0.8628099 1.240509 0.7912585 0.7736164
000010 1f d6 88 3f 17 b6 28 3f d4 ef 06 3f cd d8 7c 3f
       1.0690345 0.6590285 0.527097 0.9876831
000020 de 7b b7 3f 53 9a bb 3f ee 64 a6 3f cb 07 44 3f
       1.4334676 1.4656471 1.2999551 0.7657439
000030 40 40 5f 3f aa c1 55 3f 9c 8a 4d 3f 42 20 a2 3f
       0.8720741 0.8349863 0.80289626 1.2666094
000040 93 7b 41 3f e0 de 30 3f fb 2f 87 3f e1 c4 4c 3f
       0.75579184 0.6909008 1.0561517 0.79987913
000050 44 4a 45 3f b7 53 69 3f ba 5a 2e 3f 82 94 82 3f
       0.77066445 0.91143364 0.6810719 1.0201571
000060 a0 9d b4 3e 41 07 38 3f d6 64 5d 3f 6f 76 b0 3f
       0.35276508 0.7188607 0.8648199 1.3786143
000070 68 21 9a 3f ac 7c 6a 3f 30 10 b7 3f f6 5c b5 3f
       1.2041445 0.91596484 1.4301815 1.4168994
000080 78 be 4e 3f 3e 19 81 3f 08 d6 6a 3f 22 66 1e 3f
       0.8075938 1.0085828 0.91732836 0.6187459
000090 13 ec ae 3f 28 97 2d 3f b6 8b 92 3f ce a2 89 3f
       1.3665794 0.6780877 1.1448886 1.0752809
0000a0 8c f7 4a 3f 68 69 5a 3f 42 1c 39 3f 9b 71 21 3f
       0.79283977 0.8531709 0.72308743 0.63063973
0000b0 6d 17 7e 3f e0 59 98 3f 4d fd b8 3f 9e c7 ae 3f
       0.99254495 1.1902428 1.4452301 1.3654668
0000c0 50 c9 1e 3f 5f 23 be 3f 21 3e 70 3f cf 44 35 3f
       0.6202593 1.4854544 0.938448 0.7080812
0000d0 30 94 39 3f 4a 0e 65 3f d7 2f 32 3f 49 67 10 3f
       0.7249174 0.8947493 0.6960425 0.564076
0000e0 22 a1 b4 3f 96 fc 98 3f 8f 7c 4a 3f 5a 80 bd 3f
       1.4111674 1.1952083 0.7909631 1.4804795
0000f0 2f 09 25 3f 9c 3b 8b 3f 0d 0c 8f 3f 98 08 3d 3f
       0.6446714 1.0877566 1.1175553 0.7384124
000100 15 ec 3a 3f 24 91 78 3f 8b cc 83 3f 17 6c 18 3f
       0.7301648 0.97096467 1.0296797 0.5953993
000110 e2 54 81 3f 4f 5a a6 3f c3 29 c1 3f 93 54 69 3f
       1.0104029 1.299631 1.509087 0.91144675
000120 94 df 5e 3f 3c 5f b0 3f 4e ba b0 3f b1 d5 74 3f
       0.87059903 1.3779063 1.3806856 0.9563857
000130 91 44 7b 3f fd c6 8d 3f 3a ef b1 3f c1 91 66 3f
       0.981515 1.1076351 1.3901131 0.9006615
000140 6f 52 63 3f 9b 4e 84 3f 60 76 a0 3f 6e 92 43 3f
       0.8879766 1.0336488 1.2536125 0.7639531
000150 e1 b3 b8 3f 0d 36 70 3f a8 a3 b9 3f 25 ef 74 3f
       1.4429895 0.93832475 1.4503069 0.95677406
000160 7e 0b 90 3f e5 7f 4e 3f df 43 a7 3f 2a a1 85 3f
       1.1253507 0.806639 1.3067588 1.0439808
000170 77 ee 51 3f 27 de 5d 3f 32 a1 9a 3f bd 00 90 3f
       0.82004493 0.866671 1.2080443 1.1250225
000180 bf 75 b8 3f 62 f6 25 3f dc 6f 42 3f 21 47 84 3f
       1.4410933 0.64829075 0.75951934 1.0334207
000190 98 0f 90 3f 58 c9 98 3f 54 b1 8c 3f a2 ec 17 3f
       1.1254759 1.1936445 1.0991616 0.5934545
0001a0 1b cc 86 3f af 2e 96 3f 64 90 9c 3f 99 7b 78 3f
       1.0531038 1.1732997 1.2231565 0.97063595
0001b0 82 39 a1 3f c5 ee b4 3f 0a f8 6a 3f 20 8b b4 3f
       1.2595675 1.4135367 0.9178473 1.4104958
0001c0 2b 1e bc 3f 4d 90 12 3f 86 91 74 3f b3 be a1 3f
       1.4696707 0.57251436 0.9553455 1.2636322
0001d0 8b 8f 30 3f 1b ee 1b 3f 50 40 f8 3e fb 42 6f 3f
       0.6896903 0.60910195 0.48486567 0.9346158
0001e0 e4 f5 a6 3f 2a 68 27 3f 91 ed 6f 3f f6 2a 26 3f
       1.304379 0.65393317 0.9372187 0.64909303
0001f0 aa 91 99 3f 30 e6 c0 3f 72 33 05 40 66 40 9b 3f
       1.1997578 1.5070248 2.081265 1.2129028

bag_head.0.weight f4 [256, 128]
000000 60 dc 59 be e2 5b 4c be 4d c8 68 3d 1d 9a 1b be
       -0.21275473 -0.19956926 0.056831647 -0.15195508
000010 dc 66 df bd 30 0d 17 3e 36 82 26 be 8f 00 de be
       -0.10908291 0.14751124 -0.16260609 -0.433598
000020 39 26 05 bf 63 98 c2 3e 3f aa 50 bc 78 22 e9 bc
       -0.5201145 0.38006887 -0.012735902 -0.028458819
000030 cf 5b 4d bd 61 13 56 be f6 53 e4 bd a6 ea d6 3d
       -0.050136384 -0.2090583 -0.11148827 0.104939744
000040 58 62 b2 bc 0f 7a 03 bd 8e 75 9e 3c 58 d4 3e 3e
       -0.02177541 -0.032098826 0.019343164 0.1863569
000050 c6 08 d5 bd 3b e8 41 bc e1 da 80 be a0 e6 c1 3c
       -0.10402064 -0.011835153 -0.2516699 0.02366954
000060 43 9c 43 3e 31 0e 2c be 25 78 37 3e 74 7a 38 3d
       0.19102578 -0.16802289 0.17916925 0.045038655
000070 c0 e3 2a be 12 55 a5 3c ef 39 dd 3d 7f 5e 63 3e
       -0.16688442 0.020182166 0.108020656 0.22204016
000080 19 c9 3e be 45 00 4d 3d c4 71 84 3e d7 ea 9e be
       -0.186314 0.050049085 0.25868046 -0.31038544
000090 b4 9f de bd 83 79 72 3e ca a4 08 be 6c de af bd
       -0.10870305 0.23679166 -0.13344112 -0.085873455
0000a0 7e 2e 26 bd 69 ae 22 3d ee 27 24 3e 44 04 28 3e
       -0.040571682 0.03971711 0.16030857 0.16407877
0000b0 8f 87 eb bc 26 db 67 3c 55 f9 43 be cd 30 b8 3b
       -0.028751163 0.01415137 -0.19138081 0.005621052
0000c0 39 5f 50 3e ca c3 6b 3e be 19 59 be f3 f0 b8 be
       0.20348825 0.23023906 -0.21201226 -0.3612133
0000d0 6a 49 9e 3d f3 0f 00 bd 77 b7 72 be f2 ec 73 3e
       0.07728846 -0.03126521 -0.23702799 0.23820856
0000e0 fd 81 78 bd 70 89 0c be 85 70 f6 3e 46 5d 0a be
       -0.06067084 -0.13724303 0.4813272 -0.13512143
0000f0 48 00 d4 bd 25 80 8a be ce 7d 84 bc b0 24 4d be
       -0.10351616 -0.27050892 -0.01617327 -0.20033526
000100 9e 36 31 bd 54 1f 43 3e 02 71 13 be fc 23 6a 3d
       -0.043264978 0.1905492 -0.14398578 0.057163224
000110 b2 1b 86 be 08 c7 5e 3e db 1b eb bd d9 e1 36 be
       -0.26193005 0.21755612 -0.114799224 -0.17859592
000120 99 85 85 be cc 02 7e 3e ed c3 56 3e 18 7c 82 3d
       -0.2607849 0.24805754 0.20973177 0.06371325
000130 1b f2 07 be 48 c7 74 be ed 66 e8 3d ce 5d 2a 3e
       -0.1327595 -0.23904145 0.113477565 0.16637346
000140 ee 92 d9 3d 8f 74 5e 3e c2 24 86 bd 93 f0 cb 3e
       0.10623728 0.21724151 -0.0654998 0.3983198
000150 91 13 98 3d de f5 f0 bd 80 19 ee bb 5a 48 3e 3e
       0.07425607 -0.117656454 -0.0072662234 0.18582287
000160 b7 6c 19 be e9 5f 02 be 4a a3 4f be 46 e1 aa 3e
       -0.14982878 -0.127319 -0.20277134 0.33374995
000170 17 68 2d 3e f6 82 9d be f9 16 1c 3c fd d5 86 be
       0.16934238 -0.30763978 0.0095269615 -0.26335135
000180 4d 07 a0 3e 59 b4 2f be 36 9c 25 bd 5e 9a 5a be
       0.3125557 -0.17158641 -0.040432177 -0.21347949
000190 07 c5 9a be 09 f7 b4 be 1a cb 7e bd 6f 22 87 3e
       -0.30228445 -0.35344723 -0.06220541 0.26393458
0001a0 57 ac ff 3c 2c 65 c6 bb be 52 9b 3e 50 c2 2f be
       0.031210108 -0.006054541 0.30336565 -0.17163968
0001b0 ca ca 42 3e 9b 71 75 be 78 b8 10 be ce d6 fe bc
       0.1902267 -0.23969118 -0.14132869 -0.031108286
0001c0 61 6c 8b 3e 6e 51 63 3d 69 06 72 3d ab 24 21 3e
       0.27231124 0.05549758 0.059088144 0.15736644
0001d0 85 7d 2d 3d f5 44 46 bd b9 a8 96 be f4 29 69 bd
       0.042356033 -0.048405606 -0.294256 -0.056924775
0001e0 62 87 9a 3e af 28 19 bd dc b4 47 be 6e 4d 59 3e
       0.30181414 -0.037392315 -0.19502586 0.21220943
0001f0 6f 43 c3 3d d3 c1 18 3e 5c b4 61 3d c1 76 a7 3e
       0.09534346 0.14917688 0.055103645 0.3270779
000200 98 56 56 bd 7c 91 01 3e bd fd a8 3d 52 b2 6b 3d
       -0.052328676 0.12653154 0.08251522 0.057543106
000210 10 bb 97 3c 1f 76 b5 bd 0a f1 0d bd b3 54 11 3e
       0.018521816 -0.088604204 -0.0346537 0.14192466
000220 7c 2c 3b be a2 0d a1 3d b1 63 23 3d 0a 5c 46 bc
       -0.18278688 0.078639284 0.039889995 -0.012106905
000230 47 c8 11 be d4 5c 76 bd 6b d6 6d 3d fe d0 dc 3d
       -0.14236556 -0.06014712 0.058065813 0.107820496
000240 17 eb e2 3d 12 72 0f be 31 28 ab 3d f4 8c ad bd
       0.11079996 -0.14008358 0.08357275 -0.0847415
000250 21 f1 9d 3d 12 e4 86 bd 32 34 ce bd 9a 6b 41 3e
       0.07712007 -0.0658647 -0.10068549 0.18888703
000260 cf e7 de 3d 08 35 1c 3c 4a 8b 91 3e c1 7e ce bd
       0.10884058 0.009534128 0.28426582 -0.1008277
000270 55 9c d9 bd aa c8 8e bc 54 e7 84 be 7d 76 44 3e
       -0.10625521 -0.017429668 -0.2595774 0.19185825
000280 85 28 bd 3d 69 a5 e4 bd fe a3 3e 3e 6a 9d 0a be
       0.09236244 -0.11164362 0.18617246 -0.13536611
000290 71 d1 0f be b2 a8 c2 bd 5b 16 37 3e 7e 80 dd bd
       -0.1404474 -0.09504832 0.17879622 -0.108155236
0002a0 51 59 0b 3e 4a 8b 6c 3e ff 08 2e 3e ea 4a 0a 3e
       0.1360829 0.2310001 0.16995619 0.1350514
0002b0 1a 06 f3 bd b2 cc 67 3d 73 da 67 3e 70 2e 03 3e
       -0.11866398 0.056591697 0.22641926 0.12810683
0002c0 52 78 4e 3c ea dc 01 be 9f 58 87 3d b5 63 ad 3d
       0.012601929 -0.12681928 0.066087 0.08466283
0002d0 36 36 51 3d 77 64 f9 3d 2f 06 2d bd 5e e8 79 be
       0.05107709 0.12177365 -0.042242225 -0.24405047
0002e0 74 27 ef bd 99 6d da 3c c4 d0 f0 bd 58 7e 7c 3d
       -0.11677447 0.026663588 -0.11758569 0.06164393
0002f0 ba 2d c1 3d 64 be 58 3d 70 79 09 3e 72 13 9c 3a
       0.0943255 0.052915946 0.13425231 0.0011907651
000300 43 57 f4 3d d2 d7 20 3e 37 bd bf bd 69 22 67 3e
       0.11930706 0.15707329 -0.09362262 0.2257172
000310 43 00 9e bd db a6 5c 3d e1 6b 28 be 99 a7 71 3d
       -0.07714894 0.053870063 -0.16447403 0.058997724
000320 d6 57 3a be 41 16 a4 3d e0 dd 83 be 61 7c 32 3e
       -0.18197569 0.08012057 -0.25755215 0.1743026
000330 5a ae 2c bd 24 56 07 be f4 81 12 3e b8 90 06 be
       -0.042158462 -0.13216454 0.14307386 -0.13141143
000340 7a 52 f9 3c de a9 0e 3c 63 34 37 3e a4 1e fb 3d
       0.030434836 0.008707492 0.17891078 0.122617036
000350 3f f6 94 bd 68 5d ac 3d 94 37 45 3d 1e 6b 8e 3d
       -0.0727353 0.08416253 0.048148707 0.06954025
000360 58 7b 14 3d a8 4e 3f be f2 ab 16 be a4 12 b0 bd
       0.036250442 -0.18682349 -0.1471403 -0.085973054
000370 d6 80 22 3e c7 b7 7a be 9f bc a4 3e 5c 35 0e bd
       0.1586946 -0.24484168 0.32175156 -0.034718856
000380 b6 5f 94 3c a2 5c 6e bd 1c 8a b7 bb 36 51 fb bd
       0.018112045 -0.05819381 -0.0056011807 -0.12271349
000390 cf 2b 90 bd 4f 16 bc 3b 78 fb 19 3b f2 3d 84 3d
       -0.07039606 0.005739964 0.0023495834 0.06457128
0003a0 d9 f7 00 be f2 b3 85 bb d3 12 2a 3e 47 e1 8a 3c
       -0.12594546 -0.004080289 0.16608743 0.016953124
0003b0 50 d2 4b bd cf de 59 be 10 44 b9 bd 74 68 4f 3e
       -0.049761117 -0.21276401 -0.09046185 0.2025469
0003c0 c6 0d f1 3d 75 b0 19 be 43 1d 2a 3d 40 09 b6 bd
       0.11770205 -0.1500872 0.041531812 -0.08888483
0003d0 8f 5f 88 3d f1 fa 08 be 61 07 c8 3d 12 36 07 3e
       0.06658851 -0.13376977 0.097670324 0.1320422
0003e0 b5 cf af bb 68 6c 22 3e e1 6d b6 3d 67 37 e4 3c
       -0.005365337 0.15861666 0.089076765 0.02785845
0003f0 1e 27 a9 3d fc bb 49 bd c3 6f 60 3e 2d 76 59 3e
       0.08259414 -0.04925154 0.21917634 0.21236487
